hand-gesture-recognition-mediapipe-main/model/keypoint_classifier/keypoint_classifier.tflite (tflite, 6852 bytes, 6 tensors)

sequential/dense/BiasAdd/ReadVariableOp f4 [20]
0	0xbf02f5c6	-0.5115627
1	0xbeb5cbb7	-0.35506985
2	0xbf274adb	-0.65348595
3	0xbf25ed79	-0.6481548
4	0x3e2af82f	0.16696237
5	0xbebbb31a	-0.3666008
6	0xbf63553f	-0.8880195
7	0xbf9f0017	-1.2421902
8	0xbf08e9cb	-0.5348174
9	0xbf566a33	-0.837558
10	0xbcc48192	-0.023987565
11	0x3f318b77	0.6935343
12	0xbe69aa8b	-0.22818963
13	0x3e973f9d	0.2954072
14	0xbf734b28	-0.95036554
15	0x3eb8cb39	0.36092547
16	0x3e22e582	0.15907863
17	0x3cc339c0	0.023831248
18	0xbfd27013	-1.6440452
19	0xbdbf0325	-0.09326772

sequential/dense_2/BiasAdd/ReadVariableOp f4 [11]
0	0xbf1451fd	-0.57937604
1	0xbec89f86	-0.39184207
2	0xbeb1a57f	-0.34696576
3	0x3f857232	1.0425475
4	0x3f53a03d	0.8266638
5	0x3bf8503e	0.007577925
6	0x3e5a61f3	0.21326427
7	0x3f0340a7	0.51270527
8	0xbf1554ad	-0.5833233
9	0x3cfce89f	0.030872641
10	0xbe25903b	-0.16168301

sequential/dense_1/BiasAdd/ReadVariableOp f4 [10]
0	0x3f25c3de	0.64751995
1	0x3f428448	0.75983095
2	0xbe5a8a98	-0.21341932
3	0x3f600958	0.8751426
4	0x3f0bc1b8	0.54592466
5	0xbdd5f1d1	-0.104465134
6	0x3f70b60e	0.94027793
7	0x3ed464c9	0.41483143
8	0x3d0167bb	0.031593066
9	0x3e9746be	0.2954616

sequential/dense/MatMul f4 [20, 42]
0	0x3c83e470	0.016100138
1	0x3e36c628	0.17849028
2	0xbd8b0008	-0.06787115
3	0x3f9a0dfb	1.2035517
4	0xbda2fb66	-0.07958107
5	0x3efeefc2	0.49792296
6	0xbae38a85	-0.0017360008
7	0x3e8f3a39	0.27974108
8	0x3d97a113	0.07403769
9	0x3e6fde18	0.23424566
10	0x3d259b6a	0.040431418
11	0x3e271b1e	0.16318938
12	0xbe89f3eb	-0.26943907
13	0x3d744cf7	0.059643712
14	0xbe2b6506	-0.16737756
15	0xbd799432	-0.060932346
16	0xbd04207b	-0.03225754
17	0xbda12482	-0.078682914
18	0x3c044a3f	0.008074342
19	0x3e2fde35	0.17174609
20	0xbe4cbd1a	-0.19994012
21	0x3d351933	0.044213485
22	0x3e86428c	0.26222646
23	0xbe9ce9cd	-0.30647126
24	0x3f29fe82	0.66403973
25	0xbef51a5f	-0.47871682
26	0xbd71c76e	-0.05902808
27	0x3e4b5687	0.19857226
28	0xbe72a181	-0.23694421
29	0x3d86d6e7	0.06583958
30	0x3ecead74	0.4036671
31	0xbe7ef740	-0.24899006
32	0x3f68695d	0.9078577
33	0xbf7c7b88	-0.98625994
34	0xbe1fc696	-0.15603098
35	0x3e8506ce	0.25981754
36	0xbdf18d8d	-0.11794577
37	0x3e152679	0.14565457
38	0x3e7b402f	0.24536203
39	0x3c14463b	0.009049947
40	0x3f31f2f5	0.6951135
41	0xbceef245	-0.029168257
42	0x3e359c64	0.1773544
43	0x3e6896b4	0.22713739
44	0x3e8fcb73	0.28084907
45	0x3f3e86ee	0.74424636
46	0x3e33d359	0.17561091
47	0x3e66defe	0.22546002
48	0x3e568fea	0.20953336
49	0x3e2b5cdf	0.16734646
50	0x3e763929	0.24045242
51	0x3e1a8490	0.15089631
52	0x3d74e262	0.059786208
53	0x3ded6473	0.11591425
54	0x3de9a83b	0.114090405
55	0x3d83370a	0.06406982
56	0x3cd349c8	0.025792018
57	0xbd497768	-0.04918614
58	0xbb0282a1	-0.0019914287
59	0xbdca9782	-0.09892179
60	0x3c885af1	0.016644927
61	0x3e07ec66	0.13273773
62	0xbc80140f	-0.015634565
63	0x3d8cfd07	0.06884199
64	0xbe8dffe4	-0.27734292
65	0xbc87e4ce	-0.016588595
66	0xbf0f8cf3	-0.56074446
67	0xbdca5a18	-0.09880465
68	0xbcdc89e3	-0.026921218
69	0x3e330a7b	0.17484467
70	0x3d0c02d5	0.03418239
71	0x3d6b1172	0.057389684
72	0xbefeb9a2	-0.49751002
73	0xbdaa68eb	-0.08320793
74	0xbf93c394	-1.1544061
75	0xbda175a5	-0.07883767
76	0x3c9d7bba	0.019224036
77	0x3e4a914e	0.19781992
78	0x3ee28c70	0.4424777
79	0x3d61a870	0.055092275
80	0x3eefdd9f	0.4684877
81	0xbe3af3ee	-0.18257114
82	0xbd118e5d	-0.03553616
83	0xbf970344	-1.1797872
84	0xbd79ef10	-0.061019003
85	0x3e4df888	0.20114338
86	0xbecb0c28	-0.39657712
87	0xbf1270a6	-0.5720314
88	0xbf11f7d6	-0.5701879
89	0xbe515980	-0.20444298
90	0xbf3a9efc	-0.7289884
91	0xbea69216	-0.3253333
92	0xbf206d18	-0.62666464
93	0xbdbabc89	-0.091179915
94	0xbed99fbd	-0.42504683
95	0xbc985c2f	-0.018598644
96	0x3e17e5ce	0.14833757
97	0xbcb1a1a5	-0.021683523
98	0x3ea0d331	0.31411126
99	0x3d8c0f10	0.068388104
100	0x3e92ef10	0.28698015
101	0x3d5329d1	0.05155355
102	0xbeed718a	-0.46375686
103	0x3ca84f73	0.020545697
104	0x3dd00e5f	0.10158991
105	0xbd6aab42	-0.05729223
106	0x3ebdb20d	0.37049904
107	0x3e4d0d01	0.20024492
108	0x3ee73316	0.45156163
109	0x3e6d43a1	0.2317033
110	0xbe741cbc	-0.23839086
111	0xbe01597f	-0.12631796
112	0x3daf17d0	0.08549464
113	0xbd7413eb	-0.059589308
114	0x3eb298e8	0.34882283
115	0x3e662c33	0.22477798
116	0x3edce03d	0.4313983
117	0x3e8eca2c	0.2788862
118	0x3dab795f	0.08372759
119	0xbe96f47e	-0.29483408
120	0x3d082fc5	0.03324868
121	0xbe9294c1	-0.28629115
122	0x3cb4dc1b	0.02207761
123	0xbe09105b	-0.13385145
124	0x3d34a78c	0.044105098
125	0xbd374a77	-0.04474875
126	0xbe83d1a5	-0.25745884
127	0xbe344f33	-0.17608337
128	0x3cc4447e	0.02395844
129	0x3f1a6603	0.6031191
130	0x3caf7858	0.021419689
131	0x3e8c2445	0.2737142
132	0xbd31ce59	-0.04340968
133	0x3e3d3294	0.18476325
134	0xbdaba650	-0.08381331
135	0x3e05319f	0.1300721
136	0xbc3144bb	-0.010819609
137	0x3dadcff0	0.084869266
138	0x3cd52eb7	0.026023252
139	0x3db276be	0.087140545
140	0xbc55a2c7	-0.013039297
141	0x3dcae393	0.099066876
142	0xbd3df208	-0.046373397
143	0xbfd4140b	-1.6568617
144	0xbcaf5342	-0.021402005
145	0x3dadf68b	0.0849429
146	0x3cc62f69	0.024192529
147	0x3d8986f3	0.06715193
148	0xbd75b95d	-0.05999123
149	0x3d038b9b	0.03211556
150	0xbdbc081f	-0.091812365
151	0x3c2900f7	0.010315171
152	0xbd1f31f3	-0.038865995
153	0x3d92fdb1	0.07177294
154	0x3d3f936a	0.046771444
155	0x3d581132	0.052750774
156	0xbda6b4b4	-0.08139935
157	0x3ccc9990	0.024975568
158	0xbdfe8755	-0.12428156
159	0x3c17b283	0.009258869
160	0xbcead39d	-0.028665358
161	0x3d8a53dd	0.06754277
162	0x3d945897	0.0724346
163	0x3cc2af38	0.023765191
164	0xbd00fe2d	-0.0314924
165	0x3c87fe0d	0.016600633
166	0xbda7e51b	-0.08197995
167	0x3ca254ed	0.019815886
168	0xbe572405	-0.21009834
169	0x3e0c7ae8	0.1371876
170	0x3e80de7d	0.25169745
171	0x3f67a790	0.90490055
172	0x3e027435	0.12739642
173	0x3eca5aa5	0.3952228
174	0x3e3b3dba	0.18285266
175	0x3e9695d8	0.29411197
176	0x3e39bef2	0.18139246
177	0x3e5abec9	0.21361841
178	0xbd42c80c	-0.04755406
179	0x3e7fc136	0.24976048
180	0x3e1a2b0a	0.1505548
181	0x3dceb985	0.10093979
182	0x3d741cc9	0.059597764
183	0x3be19539	0.006884244
184	0xbd1e5c36	-0.038662158
185	0xbcc5a375	-0.024125794
186	0xbcab00e5	-0.02087445
187	0x3e49e7bd	0.19717307
188	0x3d3cb78e	0.04607349
189	0x3db49f61	0.088194616
190	0xbe9b8ae2	-0.30379397
191	0xbe0cad27	-0.13737927
192	0xbf2b99b9	-0.6703144
193	0xbe423c94	-0.18968421
194	0x3ea91f95	0.33031908
195	0x3e311684	0.17293745
196	0x3e3beed2	0.18352821
197	0x3d0d3fad	0.034484554
198	0xbef29d01	-0.4738541
199	0xbe037fe9	-0.12841763
200	0xbf6cee8a	-0.9255148
201	0xbe1ef9f7	-0.15525042
202	0x3f06c306	0.5264133
203	0x3e107084	0.14105421
204	0x3ebf1c0e	0.37326092
205	0xbd40a1e4	-0.04702939
206	0xbf012152	-0.5044147
207	0xbf0a549d	-0.5403536
208	0xbfa90fad	-1.3207909
209	0x3e278e9b	0.16362993
210	0xbe7de289	-0.24793448
211	0xbd27b8d0	-0.040947735
212	0xbe0d7ef3	-0.13817959
213	0x3fbdc67f	1.4826201
214	0xbe10de68	-0.14147341
215	0x3f1e49c2	0.61831295
216	0xbe602e9a	-0.21892777
217	0x3ed919c2	0.42402464
218	0xbeaaaa1f	-0.33332917
219	0x3ec74da3	0.3892642
220	0xbe126b2d	-0.14298697
221	0x3d5b8390	0.053592265
222	0x3d480f45	0.048842687
223	0xbe0e827a	-0.1391696
224	0x3d97a620	0.07404733
225	0xbfad709b	-1.354999
226	0x3db25096	0.08706777
227	0xbf05928d	-0.52176744
228	0xbdb15e7f	-0.08660602
229	0x3da664fe	0.081247315
230	0x3d9b7aec	0.07591805
231	0x3de17042	0.110077396
232	0x3e4b65af	0.19863008
233	0x3e299d0f	0.1656382
234	0x3e496553	0.19667558
235	0x3e118ce5	0.14213903
236	0xbd1100b0	-0.035401046
237	0x3d95634f	0.07294332
238	0x3d2f4f3d	0.042800177
239	0x3dfc6fb8	0.12325996
240	0x3dfc757a	0.123270944
241	0x3e1d4e13	0.15361814
242	0x3e03fecb	0.12890165
243	0x3e1d4faf	0.15362428
244	0x3c96d2e8	0.018411115
245	0x3da563d3	0.080756806
246	0x3d6f8114	0.058472708
247	0xbc80c5c5	-0.015719304
248	0xbdd2a542	-0.10285427
249	0xbe52c23d	-0.20581909
250	0xbe6d0451	-0.23146178
251	0xbe46d533	-0.19417267
252	0x3e0ac3ac	0.13551205
253	0x3d7eb858	0.062187523
254	0x3f902a4d	1.1262909
255	0xbf81eb9d	-1.0150028

sequential/dense_1/MatMul f4 [10, 20]
0	0x3f26f1a6	0.65212476
1	0xbd6346de	-0.055487506
2	0x3ef0de93	0.4704481
3	0x3f3d216f	0.7387914
4	0xbc15abcf	-0.009135201
5	0x3f01f28d	0.5076073
6	0xbea81bc6	-0.3283369
7	0xbdabe2ed	-0.08392892
8	0x3f82f875	1.0232073
9	0xbc95ba81	-0.018277409
10	0xbf363909	-0.7118078
11	0x3c285c2d	0.010275883
12	0x3da16cae	0.07882057
13	0x3ec74adc	0.389243
14	0x3f39fa04	0.7264712
15	0x3f019635	0.5061982
16	0x3e075ee3	0.1321979
17	0x3d9a8b40	0.07546091
18	0xbdf5ede3	-0.12008264
19	0x3e064ead	0.1311595
20	0x3f26b064	0.651129
21	0xbf9b9325	-1.215428
22	0x3e4f29eb	0.20230834
23	0xbe6000e8	-0.21875346
24	0xbf4c7a57	-0.79874176
25	0x3d1993da	0.037494518
26	0x3eea29db	0.45735058
27	0x3f7c24e4	0.9849379
28	0xbeb0ddda	-0.3454426
29	0x3edab40b	0.42715487
30	0xbeaba73c	-0.33526027
31	0xbd520c0d	-0.051281024
32	0x3e2b168a	0.16707817
33	0xbdae0fba	-0.08499093
34	0x3dbe717d	0.0929899
35	0x3d497420	0.04918301
36	0x3ca951fa	0.020668972
37	0xbfcc372a	-1.5954335
38	0x3f700e67	0.93771976
39	0x3e066556	0.13124594
40	0x3fa3e30a	1.2803662
41	0x3f4683ac	0.77544665
42	0xbe8e96bb	-0.27849373
43	0x3e13eb4d	0.14445229
44	0x3f0b5838	0.54431486
45	0x3e8eaa6a	0.2786439
46	0xbd9e1cd2	-0.07720341
47	0xbea0f304	-0.31435406
48	0x3ea696fd	0.3253707
49	0x3e6a7790	0.22897172
50	0xbe70e380	-0.23524284
51	0xbeb17461	-0.34659103
52	0xbdb2a783	-0.087233566
53	0xbcf7c77f	-0.030246494
54	0xbea432fd	-0.3207015
55	0xbe87e7a8	-0.26543927
56	0xbf5dc420	-0.8662739
57	0x3f6a58c9	0.91541725
58	0x3ec43ad7	0.3832614
59	0xbd196475	-0.03744932
60	0xbd8170f1	-0.0632037
61	0xbc1355f2	-0.008992659
62	0x3e2969ec	0.16544312
63	0x3f8dc221	1.1074868
64	0xbda0f083	-0.07858374
65	0x3f13c166	0.5771698
66	0x3f1d7148	0.6150098
67	0xbdb627fc	-0.08894345
68	0x3fb4b42d	1.4117485
69	0x3f19ab34	0.6002686
70	0xbee8624e	-0.453875
71	0xbf8854d3	-1.0650886
72	0xbea62011	-0.3244634
73	0xbf0c6fc2	-0.5485803
74	0xbea2faf4	-0.31832087
75	0xbfc30a73	-1.5237564
76	0xbf3eb2e9	-0.74491745
77	0x3df0e24d	0.117619134
78	0x3ec85d29	0.39133576
79	0x3f2317d3	0.6370823
80	0x3e43f4b1	0.19136311
81	0x3ebcfdcb	0.3691238
82	0x3dd61d7b	0.10454842
83	0xbe321da2	-0.17394117
84	0x3f35bfd2	0.7099582
85	0xbdbca3d8	-0.09210938
86	0xbdb0348e	-0.08603774
87	0x3bdf7563	0.0068194135
88	0x3f1cd928	0.61268854
89	0xbcc48bed	-0.023992503
90	0x3dcd9c7e	0.10039614
91	0x3e4d721d	0.20063062
92	0x3e5d7e63	0.21630244
93	0x3f85dd83	1.0458225
94	0xbcbb5bb1	-0.02287087
95	0x3f17acf8	0.59248304
96	0xbe879106	-0.26477832
97	0x3fb0c6bb	1.3810648
98	0x3e89ec9b	0.26938328
99	0xbe4da201	-0.20081331
100	0xbc759b11	-0.014990584
101	0x3d9b3065	0.0757759
102	0xbc7eb070	-0.015544996
103	0xbdcbd7cb	-0.099532686
104	0x3ec4c748	0.3843329
105	0xbdd89426	-0.10575132
106	0x3f39b956	0.72548425
107	0xbe25fb9e	-0.16209266
108	0x3c8c1037	0.017097576
109	0x3f13d4b3	0.5774643
110	0x3f8c7595	1.0973383
111	0x3f8fc054	1.1230569
112	0x3f8c3206	1.0952766
113	0x3ec2529b	0.37953648
114	0xbefc3698	-0.49260402
115	0x3f542584	0.82869744
116	0x3f11f367	0.5701203
117	0xbcd93767	-0.026515676
118	0xbd6cdc1f	-0.05782711
119	0x3eefd7c4	0.46844304
120	0x3da55877	0.08073514
121	0x3e47412f	0.1945846
122	0x3f25e604	0.648041
123	0xbf206ee1	-0.6266919
124	0x3e9526b9	0.29131106
125	0x3deb3a47	0.11485725
126	0x3eb14a16	0.34626836
127	0xbdd0d22e	-0.101963386
128	0xbfa0725f	-1.2534903
129	0xbf8e94a6	-1.1139114
130	0xbf8f24e6	-1.1183136
131	0xbf9d21d9	-1.2275954
132	0xbc8d8ce6	-0.0172791
133	0xbe9c9294	-0.3058058
134	0x3e850747	0.25982115
135	0xbf226a81	-0.6344376
136	0xbf0e1e4a	-0.5551497
137	0xbd89f860	-0.06736827
138	0x3f0c286b	0.5474917
139	0x3e34c5f2	0.17653635
140	0x3f1f2df1	0.62179476
141	0x3f152520	0.58259773
142	0xbe3adedf	-0.18249081
143	0x3f997701	1.1989442
144	0x3f45f80e	0.77331626
145	0x3ef88cd3	0.4854494
146	0xbfbf99c1	-1.4968797
147	0x3f174bd6	0.5910009
148	0xbd9957c9	-0.07487447
149	0xbf8bb81f	-1.0915564
150	0x3eb778a1	0.3583422
151	0x3d3173ec	0.043323442
152	0xbf510227	-0.8164391
153	0xbea12bbc	-0.3147868
154	0x3e8fdfb6	0.28100365
155	0xbe6c9068	-0.23101962
156	0x3f25ecd6	0.6481451
157	0xbd62a268	-0.055330664
158	0x3f5cf679	0.8631359
159	0xbe31b26f	-0.17353223
160	0xbe8e42ea	-0.27785426
161	0x3f1b7fc4	0.6074183
162	0x3fcf9b9e	1.6219366
163	0x3f7e7d22	0.9940969
164	0x3ebe1ff1	0.37133744
165	0x3f44b181	0.7683335
166	0x3e0b8b02	0.13627246
167	0x3f9c00e9	1.2187778
168	0x3e312a5e	0.17301318
169	0x3dfe8db0	0.124293685
170	0x3f361c2c	0.71136737
171	0x3eb37885	0.35052887
172	0xbe8630fc	-0.26209247
173	0x3e9b6e7f	0.3035774
174	0x3f922291	1.1416799
175	0xbdf4b6af	-0.11948907
176	0x3e2091ab	0.15680568
177	0x3f0f5631	0.5599089
178	0x3f15932f	0.5842771
179	0x3ee14914	0.44001067
180	0x3f53ab03	0.8268282
181	0x3f1f2ac5	0.62174636
182	0xbe2506e9	-0.16115917
183	0xbf2820cf	-0.6567506
184	0x3e99f06c	0.3006624
185	0xbf3eea7b	-0.7457654
186	0xbf116842	-0.5679971
187	0x3f710882	0.94153607
188	0xbf1b0575	-0.605552
189	0x3f518112	0.8183757
190	0xbd952f42	-0.07284404
191	0xbd9b85a3	-0.075938486
192	0xbd214831	-0.039375488
193	0x3e8d1441	0.27554515
194	0x3f793dc1	0.97359854
195	0x3eb2469e	0.34819502
196	0xbf551b8a	-0.83245146
197	0x3e785e12	0.24254635
198	0x3e7d948f	0.24763702
199	0x3e22bfe7	0.15893517

sequential/dense_2/MatMul f4 [11, 10]
0	0xbf02fc59	-0.511663
1	0xbf9ae158	-1.210002
2	0xbea985d5	-0.33109918
3	0xbf550491	-0.8321009
4	0xbfbfff5b	-1.4999803
5	0xbf741846	-0.9534954
6	0xc0a5974a	-5.174718
7	0xbea54dfb	-0.32286057
8	0xbfa38ef3	-1.2778
9	0xbe913196	-0.28358144
10	0x3f67aba3	0.9049627
11	0xbd8f7d6a	-0.07006343
12	0x3f22ae60	0.63547325
13	0xbee9459a	-0.45560914
14	0xbe1f806b	-0.15576331
15	0x3ecd0aae	0.4004721
16	0xbfa33f37	-1.2753667
17	0x3e0ccd34	0.13750154
18	0x3f12611a	0.57179415
19	0x3d5597c4	0.052146688
20	0xbf505897	-0.8138518
21	0x3f7f8797	0.9981627
22	0xbecfd1fd	-0.40589896
23	0xbe5bdd7a	-0.21471205
24	0xbe1f0e5f	-0.15532826
25	0x3f22d3a9	0.6360422
26	0x3f3cd892	0.7376796
27	0xbf26f5b3	-0.6521866
28	0x3e5dce0c	0.21660632
29	0x3e935618	0.28776622
30	0x3f008890	0.5020838
31	0x3f1c5aa0	0.6107578
32	0xbf523cb9	-0.82123905
33	0x3f88a2e2	1.0674708
34	0xbfc45561	-1.5338556
35	0xbf467847	-0.7752728
36	0xbf81bcfb	-1.0135797
37	0xbee99999	-0.45624998
38	0xbe36b1fb	-0.17841332
39	0xbf5d94b3	-0.8655502
40	0xbe3b764b	-0.18306844
41	0xbf7d6e5a	-0.9899651
42	0xbf3ee4dc	-0.7456796
43	0xbf66eaa9	-0.90201813
44	0x3f8418be	1.0320051
45	0x3f161111	0.5861979
46	0xc00ba527	-2.181955
47	0x3ebbbcdd	0.3666753
48	0xbf024d4e	-0.5089921
49	0xbfa1445e	-1.2598989
50	0xbfecaf75	-1.8491045
51	0x3d2c4af2	0.04206366
52	0x3df0b4a6	0.11753206
53	0x3ede9f1c	0.43480766
54	0xbf90f3f1	-1.1324445
55	0x3f4f551e	0.80989254
56	0x3fb6d8a0	1.4284859
57	0xbfba4c82	-1.4554598
58	0xbf75b471	-0.95978457
59	0x3f6d615f	0.927267
60	0x3e0d8de5	0.1382366
61	0x3f1e35ae	0.6180066
62	0xbf879595	-1.0592524
63	0xbfd5ce24	-1.6703534
64	0xbfc9c222	-1.576237
65	0xbf7b81bd	-0.9824484
66	0x3f7ebb9c	0.9950502
67	0x3f2e836b	0.6816928
68	0x3edb272c	0.42803323
69	0xbefda269	-0.49537972
70	0xbc87bd97	-0.016569896
71	0xbd44fd38	-0.04809305
72	0x3d367d42	0.04455305
73	0xbfa63462	-1.2984736
74	0x3eed5a9f	0.463582
75	0xbeee6098	-0.4655807
76	0xbec2aff7	-0.38024876
77	0xbe5db9a9	-0.21652855
78	0xbd897107	-0.067110114
79	0x3f8e9be2	1.1141322
80	0xbf7392ab	-0.9514567
81	0xbe75efe4	-0.24017292
82	0xbed7f9ec	-0.42182863
83	0x3da8d121	0.08243013
84	0xbe60f4b8	-0.21968353
85	0xbf3367c4	-0.7008021
86	0x3da0a396	0.078437015
87	0x3f9ca230	1.2236996
88	0x3e0f8222	0.14014485
89	0x3de37042	0.11105396
90	0xbe4289ab	-0.18997829
91	0xbf131e17	-0.5746779
92	0x3da66154	0.081240326
93	0x3ef960c8	0.4870665
94	0x3e4e89a6	0.20169696
95	0xbe7942b4	-0.24341851
96	0xbf13912b	-0.57643384
97	0xbb884551	-0.004158654
98	0x3f42f2e9	0.761519
99	0x3d1b172e	0.037863903
100	0x3e9c6f82	0.30553824
101	0xbea37461	-0.31924728
102	0x3f64a27d	0.8931044
103	0x3ea068ac	0.31329858
104	0x3d8eea73	0.069783114
105	0xbf8aea1d	-1.0852696
106	0xbf12ff6f	-0.5742101
107	0x3f284a0e	0.65738
108	0xbe651459	-0.22371043
109	0xbed50b6a	-0.4161027
